model_cnn.pth (torch, 435608 bytes, 8 tensors)

conv1.weight f4 [6, 3, 5, 5]
0.14492927 0.12136556 -0.082959265 -0.07489387 0.065543935 -0.0139529295 -0.068900675 -0.08826906
-0.07337103 -0.051070593 -0.10841585 -0.08453034 0.028063484 0.06588665 -0.17997935 -0.21536662
-0.09939303 -0.11435581 0.008134726 -0.017235445 -0.04703253 -0.03608124 -0.12929456 -0.08216726
-0.013416157 -0.122844346 0.026010608 -0.055579543 0.14749652 -0.143942 -0.01618331 0.091423355
0.13448147 0.137213 -0.04217149 -0.15725473 0.090683214 0.13617644 0.105693996 -0.114168815
-0.022994626 0.0641339 0.21488588 0.110635504 0.015353288 -0.22570793 0.013806882 0.12495327
0.12741607 0.06896341 -0.107367694 0.07097337 0.0057961736 0.119251035 -0.20643091 -0.14164414
0.13875526 0.046322886 -0.044512372 -0.22627327 -0.00013087707 0.12182862 0.301973 0.0010379666
-0.091741785 0.05602026 0.17694749 0.12797602 0.24497919 0.008570399 -0.04396431 -0.016636916
0.082142115 0.06621535 -0.015288219 0.0791391 -0.0806502 -0.054258496 -0.17896311 -0.03182951
-0.11456266 -0.20975162 -0.17643723 -0.040362682 0.05929318 -0.031640857 0.10039116 0.3459082
0.2550148 0.10557597 0.014899865 0.22283737 0.10080276 0.017683677 -0.0118712 -0.121135704
-0.038428422 -0.091416664 -0.040499613 0.003719441 0.13805589 -0.042636555 -0.22350103 -0.14570999
-0.13079017 -0.14384435 -0.22662088 -0.20423588 -0.049257193 -0.11179163 0.12847504 0.20794907
0.14879121 0.13253097 0.02222817 0.09912202 0.0871971 0.22936925 -0.045058757 0.04571825
0.049873278 -0.05253532 -0.10605013 0.08854658 0.0031356355 0.025561571 -0.05398182 -0.11835439
-0.14565933 -0.0458992 -0.091475025 -0.1971901 -0.20484966 0.057376023 0.0702835 0.013755073
0.21914196 0.22481526 0.04531615 0.048451073 -0.008437747 0.047257904 0.14595093 0.027097378
0.025887722 -0.09240461 -0.055324107 -0.07404709 0.030565774 0.049931504 -0.10488593 -0.051108517
0.006756393 0.053436022 0.01655859 -0.2371935 -0.09935187 0.07718298 0.025737265 -0.007026573
-0.15144297 0.08185663 0.22264726 -0.10200175 0.080550306 -0.15741035 0.15841956 0.27395844
-0.22191001 0.078029245 -0.2708977 0.12400059 0.13010962 -0.20095162 0.036844824 0.08711677
-0.06711759 0.049057424 0.09560604 -0.009078598 -0.12935825 0.15664782 0.24093938 -0.039025035
-0.030383147 -0.14886235 0.017016582 0.2652475 -0.060861796 -0.008396685 -0.055809166 0.04726997
0.272458 -0.18845224 -0.009746174 -0.16427821 0.250137 0.08277067 -0.18017676 0.08236043
-0.03808022 -0.11867845 0.05593281 -0.051770546 -0.08034439 -0.018895423 -0.0077241724 -0.024567934
-0.13109362 0.027821984 -0.13870905 0.13787965 0.04889416 -0.15815109 0.08899176 -0.039949656
0.036819067 0.07698224 -0.1477197 0.12146959 -0.048457917 0.17979531 0.01704763 -0.22430703
-0.013967848 -0.08395272 -0.012865989 0.028929396 -0.08655531 -0.0019609674 -0.0062232367 -0.13024218
-0.051757276 0.005073165 -0.013640126 0.0774975 0.043181565 -0.024925277 0.06641315 -0.08525151
-0.070412904 -0.011218606 0.10443754 -0.089806296 -0.020263383 0.08984703 -0.026877472 0.057715595
-0.049479704 0.12723386 0.10177612 -0.07712697 0.07649797 -0.0029398578 0.11310625 0.105400786
00000000: 5768 143e 828e f83d 8ce6 a9bd f561 99bd
00000010: e63b 863d d49a 64bc cc1b 8dbd 69c6 b4bd
00000020: 8d43 96bd 662f 51bd 2109 debd 3e1e adbd
00000030: 64e5 e53c 94ef 863d 824c 38be 1189 5cbe
00000040: 938e cbbd 6133 eabd 8447 053c 5931 8dbc
00000050: 2fa5 40bd ecc9 13bd cb65 04be 4f47 a8bd
00000060: 71cf 5bbc d195 fbbd 3314 d53c 60a7 63bd
00000070: 5409 173e 8865 13be dc92 84bc 2b3c bb3d
00000080: 83b5 093e 9181 0c3e 03bc 2cbd 6207 21be
00000090: 1fb8 b93d d671 0b3e 1876 d83d 57d1 e9bd
000000a0: 3a5f bcbc a258 833d 0b0b 5c3e de94 e23d
000000b0: 5b8c 7b3c fb1f 67be 4336 623c 80e7 ff3d
000000c0: 5c79 023e b03c 8d3d 98e3 dbbd 7c5a 913d
000000d0: d4ed bd3b e339 f43d a062 53be 290b 11be
000000e0: dc15 0e3e 11bd 3d3d 9b52 36bd 2eb4 67be
000000f0: 0c3c 09b9 4981 f93d 349c 9a3e 610c 883a
00000100: 1ee3 bbbd 8075 653d b931 353e 250c 033e
00000110: d3db 7a3e dc6a 0c3c ec13 34bd 244a 88bc
00000120: 203a a83d ea9b 873d 707b 7abc ae13 a23d
00000130: ef2b a5bd 283e 5ebd 1b42 37be a95f 02bd
00000140: d49f eabd 21c9 56be f6ab 34be 5753 25bd
00000150: 68dd 723d d899 01bd e199 cd3d e11a b13e
00000160: 4d91 823e 3738 d83d 901e 743c 7b2f 643e
00000170: ad71 ce3d 5cdd 903c 6c7f 42bc ff15 f8bd
00000180: 1f67 1dbd a938 bbbd ece2 25bd ddc1 733b
00000190: 865e 0d3e aba3 2ebd 74dd 64be 0035 15be
000001a0: dced 05be ef4b 13be 4e0f 68be 3623 51be
000001b0: e9c1 49bd 03f3 e4bd f68e 033e 9af0 543e
000001c0: b95c 183e 33b6 073e da17 b63c 7c00 cb3d
000001d0: 6594 b23d c6df 6a3e 888f 38bd 0f43 3b3d
000001e0: ec47 4c3d 472f 57bd d030 d9bd e957 b53d
000001f0: 3c7f 4d3b 8066 d13c 0a1c 5dbd c963 f2bd
00000200: b827 15be cd00 3cbd 4257 bbbd 34ec 49be
00000210: 1cc4 51be 1f03 6b3d ccf0 8f3d f55c 613c
00000220: c066 603e f935 663e 6d9d 393d a274 463d
00000230: 7a3e 0abc 8191 413d 2974 153e 52fb dd3c
00000240: 7d12 d43c a13e bdbd 889b 62bd 00a6 97bd
00000250: 1365 fa3c fa84 4c3d 6fce d6bd 2a57 51bd
00000260: bb64 dd3b bbdf 5a3d e1a5 873c dae2 72be
00000270: fe78 cbbd 1c12 9e3d f5d6 d23c 2b3f e6bb
00000280: de13 1bbe 73a4 a73d a5fd 633e 4be6 d0bd
00000290: 8ff7 a43d 2e30 21be bd38 223e 4844 8c3e
000002a0: 613c 63be cccd 9f3d 1ab3 8abe 05f4 fd3d
000002b0: 753b 053e 43c6 4dbe 99ea 163d 476a b23d
000002c0: f274 89bd 70f0 483d 19cd c33d 66be 14bc
000002d0: 7d76 04be 4968 203e d0b8 763e b7d8 1fbd
000002e0: 14e6 f8bc 5f6f 18be 5c66 8b3c 85ce 873e
000002f0: 384a 79bd 4092 09bc 2798 64bd 289e 413d
00000300: 9d7f 8b3e a0f9 40be 6bae 1fbc 8c38 28be
00000310: f511 803e ab83 a93d 4280 38be 96ac a83d
00000320: 01fa 1bbd b00d f3bd cd19 653d 5a0d 54bd
00000330: 998b a4bd 93ca 9abc 0e1b fdbb b142 c9bc
00000340: 683d 06be eeea e33c bf09 0ebe 5330 0d3e
00000350: 3e45 483d 5cf2 21be 5041 b63d 40a2 23bd
00000360: 97cf 163d dda8 9d3d d543 17be 0cc5 f83d
00000370: cf7b 46bd 431c 383e 79a7 8b3c beb0 65be
00000380: 67d9 64bc 67ef abbd decb 52bc 57fd ec3c
00000390: e943 b1bd 9383 00bb 4bec cbbb 355e 05be
000003a0: 70ff 53bd cb3c a63b d67a 5fbc 02b7 9e3d
000003b0: 27df 303d 1830 ccbc 9e03 883d 5898 aebd
000003c0: a434 90bd 3ece 37bc 59e3 d53d 5dec b7bd
000003d0: 65ff a5bc b801 b83d 252e dcbc 3067 6c3d
000003e0: 3bab 4abd 9849 023e 0070 d03d bff4 9dbd
000003f0: f8aa 9c3d a1aa 40bb 40a4 e73d 5edc d73d

conv1.bias f4 [6]
0.07474543 0.00775646 0.055934925 -0.19925964 0.057410076 -0.0056174775
00000000: 2214 993d e729 fe3b 051c 653d b80a 4cbe
00000010: d426 6b3d d112 b8bb

conv2.weight f4 [16, 6, 5, 5]
-0.047797523 -0.1020829 0.004502808 0.05768813 -0.05663162 -0.04369367 -0.05557095 0.033351332
-0.104722925 0.029721934 0.014001351 0.020560188 0.020338025 -0.06456051 -0.026293963 0.033484507
-0.03726191 -0.028870128 -0.04436204 -0.028868398 -0.02098553 0.002395296 0.04735127 -0.030839486
0.0059509175 -0.07047646 0.031930435 -0.014259538 -0.07586759 -0.06431894 -0.03564507 0.009310023
-0.07108801 -0.101839416 -0.09579092 -0.0007261904 0.07643999 -0.014929255 -0.10775039 -0.048499186
-0.019403737 0.0027556357 0.040720906 -0.08197988 0.005012401 -0.045234025 0.009437109 0.045863133
0.06405752 -0.09194128 -0.099580586 0.012608447 0.031854756 -0.053049937 0.015899424 -0.069875985
-0.012725346 -0.033418257 -0.043388486 -0.05741892 0.0012696878 -0.007405956 0.01899932 -0.006618883
0.012717788 -0.04360275 -0.0017807743 0.030023808 0.017031478 -0.027729627 -0.14073879 -0.03910043
-0.027934967 -0.08832258 -0.109665856 0.0030380997 -0.013178499 -0.03419018 -0.0633619 -0.030168463
-0.11013037 0.017608235 -0.008027621 -0.016090568 -0.063427284 -0.09145666 -0.09455014 0.011107428
0.009533082 0.036218956 -0.013357954 0.012850802 -0.050024424 0.0125574265 -0.044780165 -0.03074954
-0.09013875 -0.071331844 -0.091958374 -0.029111516 -0.009758523 -0.014657335 -0.13205525 -0.11285264
-0.12175061 -0.13917094 -0.13376476 -0.003068015 -0.03750807 -0.041058853 0.005015038 -0.035580028
-0.08555485 -0.09828839 -0.07257759 -0.055262487 0.044629827 -0.07087302 -0.08684625 -0.058252428
-0.0013399812 -0.019228244 0.035624612 0.047693092 0.007685056 -0.026570471 -0.020452354 0.048491534
-0.0392183 0.010993412 0.05611522 0.005157436 -0.0037820232 0.036120985 -0.06602986 -0.0016814001
0.04244141 -0.067062885 -0.07190666 0.027818741 0.01917047 -0.07930811 0.020105967 -0.08105638
0.029195381 -0.058787998 0.02617547 -0.007928011 0.014793816 0.033565175 0.039329804 0.094978355
0.040025212 -0.003340855 -0.07292505 -0.11326615 -0.013105003 0.102674514 0.08049313 0.020343589
-0.05678959 -0.20140928 0.025959581 0.107741416 0.08433353 0.005499793 0.025414938 -0.09113813
-0.06660531 0.09028403 0.16022782 0.092349686 0.0071558226 0.006172306 -0.016098317 -0.0030496735
0.07289033 0.05514349 0.052872527 0.014333756 0.029935889 0.029922638 0.14162844 0.057664473
-0.0075366497 0.17316848 -0.083888344 -0.08839838 0.018146476 0.17539702 0.22761823 0.17704013
-0.10498159 -0.2766567 0.13734849 0.0975374 0.113707945 0.11397822 -0.079254426 -0.23341319
-0.067355275 -0.19318016 -0.28119722 -0.25869477 -0.10891872 0.017832177 -0.0454886 -0.109801814
-0.18183032 -0.105187684 0.027652968 0.11649688 0.025008632 -0.08023581 -0.039119028 -0.025067812
0.05235574 0.17525244 0.029849725 -0.077089906 0.025346003 -0.017423121 0.06622558 0.20895286
0.18151096 0.16125473 0.20318949 0.22732173 0.17448185 0.14068082 -0.0892623 0.09981986
0.041902162 0.1738927 0.18852426 -0.121798076 -0.03796022 0.008233906 0.08147847 0.18096094
-0.084478654 -0.048349436 -0.15245642 -0.118763626 0.06541748 -0.06324765 -0.20074508 -0.24932821
-0.25773022 -0.07601504 0.023187822 -0.01616556 -0.13044694 -0.1104238 -0.1278568 -0.028277032
00000000: 56c7 43bd d710 d1bd 4b8c 933b 634a 6c3d
00000010: 8ff6 67bd 22f8 32bd 5d9e 63bd 689b 083d
00000020: f978 d6bd 6a7b f33c ec65 653c d76d a83c
00000030: ee9b a63c 4d38 84bd 7066 d7bc 0d27 093d
00000040: f29f 18bd 0c81 ecbc f8b4 35bd 6b7d ecbc
00000050: d9e9 abbc 66fa 1c3b 68f3 413d 17a3 fcbc
00000060: eaff c23b f655 90bd 7dc9 023d d6a0 69bc
00000070: 7860 9bbd a6b9 83bd 9100 12bd 1189 183c
00000080: 9796 91bd 2f91 d0bd 082e c4bd d05d 3eba
00000090: 928c 9c3d d599 74bc 3dac dcbd 15a7 46bd
000000a0: 96f4 9ebc e597 343b f7ca 263d 11e5 a7bd
000000b0: 113f a43b 5047 39bd 1b9e 1a3c fbda 3b3d
000000c0: 9730 833d b64b bcbd e8f0 cbbd a993 4e3c
000000d0: 227a 023d e44a 59bd 823f 823c 241b 8fbd
000000e0: f87d 50bc 95e1 08bd 20b8 31bd 1a30 6bbd
000000f0: a76b a63a a9ad f2bb 76a4 9b3c 37e3 d8bb
00000100: 455e 503c cc98 32bd df68 e9ba 7df4 f53c
00000110: 9985 8b3c 3e29 e3bc d41d 10be c627 20bd
00000120: dfd7 e4bc 78e2 b4bd 7e98 e0bd db1a 473b
00000130: a2ea 57bc 010b 0cbd e2c3 81bd da23 f7bc
00000140: 088c e1bd 253f 903c 4886 03bc 5ed0 83bc
00000150: 2ae6 81bd a14d bbbd 81a3 c1bd eefb 353c
00000160: a530 1c3c 545a 143d 52db 5abc 2c8c 523c
00000170: 69e6 4cbd aabd 4d3c 686b 37bd 76e6 fbbc
00000180: aa9a b8bd 6e16 92bd ac54 bcbd 467b eebc
00000190: 36e2 1fbc 5225 70bc 7e39 07be 491f e7bd
000001a0: 6258 f9bd d482 0ebe a1f9 08be c010 49bb
000001b0: 10a2 19bd 542d 28bd 3055 a43b 5dbc 11bd
000001c0: 6237 afbd 6c4b c9bd 8fa3 94bd eb5a 62bd
000001d0: c4cd 363d e025 91bd 72dc b1bd 199a 6ebd
000001e0: 4fa2 afba 8d84 9dbc 1deb 113d d559 433d
000001f0: ecd2 fb3b 51aa d9bc b28b a7bc 0f9f 463d
00000200: 5ea3 20bd b61d 343c 13d9 653d b5ff a83b
00000210: d2db 77bb 99f3 133d aa3a 87bd 6d62 dcba
00000220: 0bd7 2d3d 4458 89bd cd43 93bd 21e4 e33c
00000230: 640b 9d3c 4a6c a2bd 45b5 a43c e300 a6bd
00000240: 272b ef3c afcb 70bd f06d d63c 7de4 01bc
00000250: c361 723c a37b 093d 4a18 213d 0384 c23d
00000260: 7af1 233d 3ff2 5abb bb59 95bd 15f8 e7bd
00000270: 5eb6 56bc 0447 d23d 95d9 a43d 99a7 a63c
00000280: 339c 68bd 3c3e 4ebe 30a9 d43c 88a7 dc3d
00000290: 0fb7 ac3d 9c37 b43b fd32 d03c a1a6 babd
000002a0: 5d68 88bd d5e6 b83d c312 243e d521 bd3d
000002b0: 647b ea3b 0e41 ca3b 9ee0 83bc 08dd 47bb
000002c0: 8647 953d 24de 613d dd90 583d 21d8 6a3c
000002d0: 1c3c f53c 5220 f53c 0c07 113e 9531 6c3d
000002e0: 00f6 f6bb 1453 313e a7cd abbd 360a b5bd
000002f0: eba7 943c 479b 333e c114 693e 024a 353e
00000300: 9600 d7bd f2a5 8dbe 15a5 0c3e b0c1 c73d
00000310: b6df e83d 6a6d e93d 2550 a2bd de03 6fbe
00000320: 90f1 89bd 05d1 45be 15f9 8fbe a473 84be
00000330: c710 dfbd c914 923c 4152 3abd c6df e0bd
00000340: ba31 3abe a46c d7bd 7a88 e23c eb95 ee3d
00000350: e7de cc3c ac52 a4bd 463b 20bd 035b cdbc
00000360: f972 563d 6075 333e 6987 f43c 50e1 9dbd
00000370: 6ca2 cf3c efba 8ebc 47a1 873d bdf7 553e
00000380: 02de 393e f61f 253e e810 503e 07c7 683e
00000390: 5fab 323e a20e 103e 27cf b6bd 5b6e cc3d
000003a0: 9aa1 2b3d ee10 323e 810c 413e 4571 f9bd
000003b0: 2d7c 1bbd 81e7 063c 2fde a63d d34d 393e
000003c0: 2503 adbd 0f0a 46bd 891d 1cbe 583a f3bd
000003d0: 9af9 853d fc87 81bd 1e90 4dbe e54f 7fbe
000003e0: 37f5 83be c6ad 9bbd 63f4 bd3c a36d 84bc
000003f0: e293 05be e025 e2bd e5ec 02be 3ca5 e7bc

conv2.bias f4 [16]
-0.012185317 -0.2385318 0.086071886 0.21696368 -0.115407415 0.007731955 0.22631085 0.030206028
-0.17836241 0.36014506 -0.10224128 -0.0651272 -0.18931378 0.14950775 0.17522797 -0.024948563
00000000: eda4 47bc ae41 74be 7546 b03d ba2b 5e3e
00000010: b95a ecbd 575c fd3b 08be 673e a272 f73c
00000020: a3a4 36be ef64 b83e e063 d1bd 6961 85bd
00000030: 79db 41be 8f18 193e f66e 333e ee60 ccbc

fc1.weight f4 [256, 400]
0.038167432 0.09142904 0.033007447 0.079941615 0.068021715 0.06993889 0.099072464 0.11252625
0.07294267 0.044064034 0.03510445 0.07718855 0.1094827 0.08989298 0.057778995 0.10316403
0.09466512 0.10013511 0.114970915 -0.00617436 0.055655885 0.04540111 0.041443367 0.04906029
0.09905058 -0.16682701 -0.09722699 -0.045530207 0.11317481 0.10190191 -0.07509589 -0.10995518
-0.0767407 0.063073315 0.21215138 0.122010306 -0.013351826 -0.110434815 0.019930357 0.13414556
0.095946535 -0.15388979 -0.22633351 -0.22996144 0.07443439 0.19108567 0.0898455 0.059452716
0.0018765868 0.14418426 0.084655054 0.1413933 -0.007869061 -0.052058488 0.049433313 0.09682137
0.11766981 0.00438766 0.01925994 -0.06602336 0.19891234 0.13917616 0.110258766 0.1265064
0.07416988 0.048758067 -0.08173108 -0.06018952 -0.013412206 0.17151058 -0.09126043 0.10335508
0.108132705 0.14063753 0.2281498 0.10684137 0.055830505 -0.0388246 0.06571912 0.14779392
0.10119849 0.025734033 -0.013872285 0.034357075 0.24925674 0.1114494 -0.038104307 0.0055684107
0.0013102976 0.11926376 0.19908544 0.06160812 -0.03621281 0.01034471 0.08440361 -0.054942653
-0.077687874 -0.16041149 -0.10223968 -0.12327303 -0.021256184 0.023615107 0.08707696 -0.026454005
-0.013233162 -0.046274364 0.05811006 0.053649496 0.009460163 -0.019609781 0.09882303 0.00040499878
-0.12757981 -0.17862588 0.077424005 -0.09534119 -0.10283362 -0.17794979 -0.23652557 0.020006422
-0.22186513 -0.15233785 -0.16473578 -0.0270088 0.1773217 0.021758966 -0.07230204 -0.010041472
-0.038880028 -0.0720649 -0.009272187 -0.0477298 -0.060801957 -0.044323623 -0.024602517 -0.012916022
0.009304996 -0.044090934 -0.0046374523 -0.002951329 -0.039344657 -0.045818802 -0.03826831 -0.023204375
-0.0572062 -0.05921183 -0.018777201 0.0006061369 0.0020845109 0.027843514 -0.10254904 -0.02476669
-0.0772652 -0.073852524 0.06949011 0.03489695 0.017859474 0.103624836 -0.10366825 0.0014336013
0.12144283 0.17421956 -0.02617708 -0.22686704 0.036091242 0.11486815 0.059906185 -0.19464806
-0.03306853 0.06679558 -0.14757076 -0.05418612 -0.18338165 0.11082992 -0.083824016 -0.15040687
-0.0383451 0.07672142 0.10377333 -0.02850968 -0.05337681 0.09774666 0.121473104 -0.038196616
-0.16607362 -0.12480447 0.014675169 0.022736805 -0.08998014 -0.13978791 0.019028643 0.11137431
0.050877016 -0.034938145 0.0402541 -0.10043731 0.03063303 -0.04417716 -0.0038388537 0.39526662
-0.18528154 -0.18611853 -0.26091754 -0.26061735 -0.24595603 -0.08185636 -0.14430058 -0.12762612
0.09517435 0.13447207 0.1707589 0.013661416 -0.10377819 -0.015410566 -0.050632197 0.2356559
0.102686115 -0.011751841 -0.010918369 0.012338833 0.37445182 0.27530617 0.2078785 0.2329482
0.20415707 -0.088275 -0.07564927 -0.13567881 -0.1489921 -0.07506602 -0.025694074 -0.12907186
-0.073684655 -0.056119017 -0.11285864 0.046352476 0.08998869 0.0886866 0.06535718 -0.18356694
0.017846404 0.04188049 0.053594507 -0.018508917 -0.15502124 -0.13491997 -0.18413918 -0.25432575
-0.29417813 -0.27295148 -0.10999658 0.041775823 -0.020640729 -0.0913454 -0.19186237 -0.1929699
00000000: 7455 1c3d 263f bb3d d132 073d 6eb8 a33d
00000010: f84e 8b3d 1f3c 8f3d 81e6 ca3d 2a74 e63d
00000020: f762 953d 7d7c 343d afc9 0f3d 0815 9e3d
00000030: 7738 e03d d019 b83d aba9 6c3d aa47 d33d
00000040: c9df c13d a313 cd3d df75 eb3d 4952 cabb
00000050: 6df7 633d 84f6 393d 85c0 293d 71f3 483d
00000060: 08db ca3d b3d4 2abe f21e c7bd e27d 3abd
00000070: 32c8 e73d f3b1 d03d e0cb 99bd 2e30 e1bd
00000080: 3a2a 9dbd 952c 813d 363e 593e 8ae0 f93d
00000090: 9ec1 5abc a62b e2bd fd44 a33c 745d 093e
000000a0: 9e7f c43d 4995 1dbe f9c3 67be 037b 6bbe
000000b0: 0f71 983d f6ab 433e eb00 b83d b184 733d
000000c0: cef7 f53a 0aa5 133e a15f ad3d 68c9 103e
000000d0: 3ced 00bc 483b 55bd 967a 4a3d 484a c63d
000000e0: dffc f03d 5cc6 8f3b 06c7 9d3c 4137 87bd
000000f0: adaf 4b3e 3284 0e3e 59cf e13d e58a 013e
00000100: 61e6 973d 8ab6 473d a062 a7bd 4989 76bd
00000110: dfbe 5bbc 78a0 2f3e c0e6 babd d4ab d33d
00000120: ae74 dd3d 4903 103e 1aa0 693e a6cf da3d
00000130: 87ae 643d 8b06 1fbd bf97 863d 4a57 173e
00000140: 2741 cf3d 2ed0 d23c 9548 63bc 01ba 0c3d
00000150: 293d 7f3e 953f e43d 4313 1cbd 3777 b63b
00000160: 4bbe ab3a 8f40 f43d 0edd 4b3e cc58 7c3d
00000170: e253 14bd dc7c 293c cddb ac3d 8c0b 61bd
00000180: d21a 9fbd e942 24be 0a63 d1bd 9276 fcbd
00000190: 7321 aebc 7874 c13c 6855 b23d 12b6 d8bc
000001a0: e8cf 58bc 308a 3dbd d004 6e3d 93bf 5b3d
000001b0: cdfe 1a3c b1a4 a0bc bb63 ca3d 0456 d439
000001c0: 48a4 02be b4e9 36be 7a90 9e3d 3e42 c3bd
000001d0: 6f9a d2bd 7838 36be c233 72be 82e4 a33c
000001e0: 9d30 63be 74fe 1bbe 7fb0 28be 8f41 ddbc
000001f0: d293 353e dc3f b23c 1813 94bd fc84 24bc
00000200: aa40 1fbd c396 93bd 5fea 17bc 5380 43bd
00000210: 790b 79bd b08c 35bd 388b c9bc b99d 53bc
00000220: fb73 183c b298 34bd c5f5 97bb 166b 41bb
00000230: dd27 21bd 7fac 3bbd 3bbf 1cbd 1a17 bebc
00000240: 0c51 6abd 1b88 72bd a5d2 99bc 29e5 1e3a
00000250: 4a9c 083b 1518 e43c 3b05 d2bd 83e3 cabc
00000260: 383d 9ebd fe3f 97bd d550 8e3d 1bf0 0e3d
00000270: 084e 923c 4239 d43d 0550 d4bd ade7 bb3a
00000280: 05b7 f83d 9d66 323e 5171 d6bc d54f 68be
00000290: 69d4 133d fe3f eb3d 3060 753d d251 47be
000002a0: de72 07bd 1fcc 883d ca1c 17be 44f2 5dbd
000002b0: 66c8 3bbe ccfa e23d edab abbd 4204 1abe
000002c0: c00f 1dbd 1f20 9d3d 1d87 d43d 228d e9bc
000002d0: a4a1 5abd 672f c83d e4c6 f83d 0e74 1cbd
000002e0: 340f 2abe 7c99 ffbd 1f70 703c 8942 ba3c
000002f0: 8247 b8bd 9024 0fbe f5e1 9b3c 3718 e43d
00000300: 6b64 503d 4d1b 0fbd 7ce1 243d 14b2 cdbd
00000310: 1ff2 fa3c 1cf3 34bd 4795 7bbb 6360 ca3e
00000320: 72ba 3dbe db95 3ebe fc96 85be a36f 85be
00000330: e6db 7bbe 4fa4 a7bd 88c3 13be 6cb0 02be
00000340: c5ea c23d 0cb3 093e 6cdb 2e3e 22d4 5f3c
00000350: a989 d4bd 997c 7cbc b563 4fbd c84f 713e
00000360: 194d d23d cb8a 40bc f5e2 32bc d128 4a3c
00000370: 26b8 bf3e eef4 8c3e 1ade 543e f989 6e3e
00000380: 8d0e 513e 86c9 b4bd 01ee 9abd 63ef 0abe
00000390: 6391 18be 37bc 99bd 617c d2bc 6a2b 04be
000003a0: fbe7 96bd 0edd 65bd 6e22 e7bd 18dc 3d3d
000003b0: fe4b b83d 52a1 b53d fcd9 853d f9f8 3bbe
000003c0: 9f32 923c e08a 2b3d ea85 5b3d 03a0 97bc
000003d0: e3bd 1ebe 7628 0abe fb8e 3cbe fc36 82be
000003e0: 849e 96be 4cc0 8bbe e345 e1bd 201d 2b3d
000003f0: bf16 a9bc 4c13 bbbd 9277 44be e799 45be

fc1.bias f4 [256]
0.14320567 0.12233856 0.007655168 -0.055421263 0.28608257 0.39264962 -0.0020072234 -0.03790831
0.0072582257 0.40645355 0.097504795 -0.047588903 0.120413065 -0.077311 -0.015086929 -0.06992063
-0.04473498 0.25655013 -0.050298084 -0.0627717 0.6381473 0.45440403 -0.10412464 0.3838894
-0.20557828 0.4219848 0.017676322 -0.00970821 -0.015676891 -0.06675715 -0.022744965 -0.020524664
0.007034472 -0.2449768 -0.03286251 -0.06729609 0.60249263 0.0578831 -0.034245454 0.19640452
0.38359714 -0.004023404 0.020462137 -0.02799439 -0.1006301 0.57365716 0.23617435 0.71877646
0.020705897 -0.17258447 -0.0548437 0.22383231 0.29282692 -0.016857713 -0.029168855 0.35908157
0.11041722 0.51461273 0.12043948 0.7030226 0.40358165 -0.067281894 -0.120243475 0.38388416
-0.13457419 0.04712648 -0.110862866 0.08760567 -0.19008493 -0.0864663 -0.07455664 0.12867491
0.03674202 -0.13481352 -0.014482528 -0.009638302 0.08623263 0.2180619 0.4019168 0.17278534
0.22168659 0.4280576 0.5042937 0.0036984987 -0.05701005 -0.15566431 0.29981107 -0.13460533
-0.14254853 0.6387128 -0.17974801 -0.034785964 -0.12852836 -0.079816714 -0.09183782 -0.03154416
0.34767836 0.19681454 0.32330483 0.1791152 0.657757 0.19063194 -0.02284971 0.36568245
-0.023900084 -0.051241376 0.22027807 -0.10073618 -0.27396414 0.55421656 -0.076539055 0.021912005
-0.06150788 -0.016535444 0.38592616 -0.033629365 0.37023848 0.1779433 -0.1653065 0.62105656
-0.105694905 -0.040943906 -0.03969776 -0.016288131 0.20177616 0.48922023 -0.036603402 0.0040196786
0.3796173 -0.04157615 0.05234858 0.3747086 -0.054303844 0.4335463 0.18664998 -0.05545529
0.28270766 0.103548184 0.26314148 -0.05260323 0.27367842 0.2657868 0.04603248 -0.1783946
0.09224235 0.47738954 -0.25219765 0.32600495 -0.003497405 -0.044742443 -0.023557337 0.47654694
0.1461723 -0.09012339 -0.036980905 0.010533851 -0.08827694 -0.06078179 0.13747442 -0.08028638
0.064335495 -0.043281563 0.57692266 -0.058747884 0.075005345 0.11071331 0.14089155 0.024619043
-0.025167063 -0.043030918 -0.06348616 -0.06876362 -0.081895165 0.09329024 0.3119566 -0.16205974
0.024451999 -0.058048673 -0.025913076 0.002813434 -0.025763264 -0.058309 -0.2232327 -0.35651973
-0.11992406 0.097157724 -0.005933479 -0.04101478 -0.031478647 0.030501137 0.09583378 -0.010084388
-0.07855147 -0.04224804 0.53657055 0.41927558 -0.28155196 0.1059387 0.11916663 0.2674135
-0.088508315 -0.2467869 0.026273768 0.5363318 -0.004111494 -0.26395693 0.56369406 -0.028802915
0.07024255 0.020004975 -0.023919728 0.39606386 -0.07828138 -0.0778877 0.067907825 -0.3198162
0.13360476 0.16259973 -0.0011919319 -0.039574035 0.08218642 0.5667019 0.14975983 -0.020253347
-0.05474917 0.63134354 -0.115039825 0.450787 0.28538227 0.3010886 -0.06002792 -0.06703899
-0.17527752 0.011313286 -0.24152844 0.023467023 0.11228828 -0.01447999 0.52846515 -0.51333416
0.22348364 0.30223706 -0.0008877799 -0.059597995 -0.01845909 0.24981116 0.0019543292 -0.09105328
0.20698921 -0.015478142 0.117571115 -0.077731445 0.2844725 -0.18095556 -0.193559 -0.046408147
00000000: 82a4 123e a48c fa3d 34d8 fa3b 6801 63bd
00000010: 6a79 923e 5f09 c93e 9f8b 03bb be45 1bbd
00000020: 69d6 ed3b ae1a d03e 98b0 c73d 95ec 42bd
00000030: 209b f63d 3b55 9ebd 2b2f 77bc 8c32 8fbd
00000040: 073c 37bd 8a5a 833e 5d05 4ebd 738e 80bd
00000050: 9f5d 233f a5a7 e83e 4d3f d5bd 278d c43e
00000060: 1d83 52be 640e d83e efcd 903c 2f0f 1fbc
00000070: d36c 80bc f9b7 88bd a653 babc 5723 a8bc
00000080: 6e81 e63b 33db 7abe d79a 06bd 88d2 89bd
00000090: f53c 1a3f d416 6d3d f644 0cbd 441e 493e
000000a0: d866 c43e c2d6 83bb 36a0 a73c 7e54 e5bc
000000b0: 2717 cebd 32db 123f b0d7 713e bc01 383f
000000c0: 6a9f a93c fcb9 30be caa3 60bd 4c34 653e
000000d0: 69ed 953e 3019 8abc 86f3 eebc 8ad9 b73e
000000e0: 6c22 e23d a9bd 033f f9a8 f63d 4af9 333f
000000f0: 41a2 ce3e 17cb 89bd 3642 f6bd 778c c43e
00000100: d1cd 09be b207 413d 120c e3bd 9a6a b33d
00000110: a0a5 42be 3e15 b1bd 27b1 98bd 5bc3 033e
00000120: cd7e 163d 8e0c 0abe 2048 6dbc f8e9 1dbc
00000130: bc9a b03d 9e4b 5f3e 0ac8 cd3e a4ee 303e
00000140: cf01 633e 5e2a db3e 6419 013f 8362 723b
00000150: 5f83 69bd 7766 1fbe d680 993e fbd5 09be
00000160: 3ef8 11be af82 233f dd0f 38be ba7b 0ebd
00000170: f09c 03be f276 a3bd 7815 bcbd 7334 01bd
00000180: e602 b23e c089 493e 3688 a53e fa69 373e
00000190: c362 283f 0535 433e 512f bbbc bb3a bb3e
000001a0: 1cca c3bc 7ae2 51bd 9390 613e c54e cebd
000001b0: 0745 8cbe 23e1 0d3f 82c0 9cbd ce80 b33c
000001c0: b0ef 7bbd 5775 87bc 1d98 c53e f2be 09bd
000001d0: e68f bd3e c536 363e 1b46 29be 90fd 1e3f
000001e0: 9276 d8bd ccb4 27bd 1e9a 22bd b06e 85bc
000001f0: 699e 4e3e 137b fa3e 73ed 15bd 82b7 833b
00000200: 335d c23e c14b 2abd 776b 563d ced9 bf3e
00000210: b56d 5ebd c8f9 dd3e 2c21 3f3e 1625 63bd
00000220: 0fbf 903e 1211 d43d 7bba 863e 7c76 57bd
00000230: 941f 8c3e 3515 883e 8e8c 3c3d 13ad 36be
00000240: 8fe9 bc3d 676c f43e 0d20 81be 1fea a63e
00000250: b834 65bb da43 37bd 51fb c0bc f6fd f33e
00000260: 31ae 153e 9d92 b8bd 4a79 17bd 2c96 2c3c
00000270: 8aca b4bd 54f6 78bd 18c6 0c3e 306d a4bd
00000280: 54c2 833d 0248 31bd 34b1 133f 9fa1 70bd
00000290: 679c 993d a9bd e23d e045 103e e0ad c93c
000002a0: 282b cebc 3041 30bd 0805 82bd f1d3 8cbd
000002b0: a7b8 a7bd f40e bf3d c7b8 9f3e fdf2 25be
000002c0: 8f4f c83c 72c4 6dbd a947 d4bc 9761 383b
000002d0: 7b0d d3bc 6bd5 6ebd 1d97 64be c189 b6be
000002e0: bf9a f5bd a1fa c63d a16d c2bb 1dff 27bd
000002f0: c1ef 00bd 85dd f93c 8044 c43d fd38 25bc
00000300: 98df a0bd 480c 2dbd b05c 093f 4aab d63e
00000310: 9427 90be 64f6 d83d a20d f43d 6cea 883e
00000320: d943 b5bd b5b5 7cbe 163c d73c 0a4d 093f
00000330: b6b9 86bb 5d25 87be 414e 103f 17f4 ebbc
00000340: 53db 8f3d 79e1 a33c 4ef3 c3bc e2c8 ca3e
00000350: fd51 a0bd 9683 9fbd 4213 8b3d f3be a3be
00000360: b0cf 083e 8b80 263e 993a 9cba 6218 22bd
00000370: 5b51 a83d 6013 113f a45a 193e 59ea a5bc
00000380: aa40 60bd bb9f 213f 009a ebbd 8ecd e63e
00000390: a01d 923e 4928 9a3e d6df 75bd bd4b 89bd
000003a0: f37b 33be 5c5b 393c 3b53 77be ea3d c03c
000003b0: 66f7 e53d 7b3d 6dbc 7e49 073f de69 03bf
000003c0: e5d8 643e d1be 9a3e e7b9 68ba 071d 74bd
000003d0: 8437 97bc 7fce 7f3e 3414 003b 247a babd
000003e0: fbf4 533e 0898 7dbc 20c9 f03d aa31 9fbd
000003f0: 61a6 913e 6a4c 39be 5534 46be 7816 3ebd

fc2.weight f4 [10, 256]
-0.06607405 0.14637497 -0.011575189 0.046387486 -0.34727 0.021423457 -0.011467401 0.006405876
0.07879542 0.014709775 -0.028243398 -0.03875487 0.07737621 0.02346945 -0.0059025013 0.015307864
-0.03118136 -0.097928815 0.054406352 -0.030063648 -0.17721552 -0.03001715 -0.10248925 0.06719049
0.040012565 0.12044408 -0.06697895 0.0028428182 -0.038464036 -0.1589372 0.01128554 0.05013981
0.033833545 0.10531542 -0.11539063 0.018175231 -0.06096948 0.05348064 0.027110653 -0.05067455
-0.09167425 -0.009126854 0.03134993 -0.07351188 0.045484435 -0.29133987 -0.10071373 -0.34065118
-0.011628967 0.015313378 -0.061930712 0.058832176 0.13997246 -0.027544308 -0.01657351 -0.38386795
-0.18981937 -0.35992786 0.089167215 -0.32107425 0.05045453 -0.0024542618 0.07256072 0.21786214
0.15339804 0.07433332 -0.1231941 0.14002785 -0.07924309 -0.052969772 -0.03483415 0.017713547
0.01377769 -0.029392034 -0.022513038 -0.010788815 0.039932415 -0.18086821 0.13784088 3.5745543e-05
0.04491228 0.0074204304 0.13320082 -0.042088274 -0.045584153 0.049808636 0.08786716 0.09628901
-0.20658927 0.13186546 -0.09689713 -0.002513778 0.12978981 0.044728532 0.07946894 -0.051402725
0.06784383 0.24752104 -0.11328145 0.10638665 -0.08204518 0.00093563023 0.021989064 -0.25555483
-0.01965286 -0.0057691117 -0.21399887 -0.059840478 0.07400789 -0.080018386 0.023201093 -0.014792178
-0.015229883 -0.03743493 -0.01656588 -0.08370346 0.12133241 0.16429813 -0.08679851 -0.23693748
-0.03919246 -0.049658656 0.028091691 -0.01824562 0.089915864 -0.16574454 0.04567646 -0.10667934
-0.0047638426 -0.036727358 0.20167015 0.026431601 0.03570337 -0.16864234 -0.1998384 0.012126586
0.10468612 0.07015655 0.088872805 0.02087394 -0.16081855 -0.15353657 -0.31839862 0.052514613
0.037755307 0.15678847 0.075228 0.0580449 0.19236334 0.033516377 0.04554402 0.10879939
-0.1823072 0.017237455 0.012698006 -0.060530476 -0.013517079 -0.053187873 0.09986657 -0.0056194384
0.05361878 0.051394865 -0.06690767 0.015088394 0.038453206 0.119231135 0.14131348 -0.031322908
-0.0757528 -0.05492656 -0.016241604 -0.09073689 -0.061976295 0.044155125 -0.18950139 0.17039867
0.016528942 0.024371667 0.04638307 -0.039886273 0.042379666 -0.04910436 0.07226977 0.100353934
0.07366439 -0.02319099 -0.0052547962 0.06916307 -0.015043049 -0.026089318 -0.2360572 0.042088453
0.054763682 -0.0907298 0.09247612 0.14058603 -0.056592997 0.17375126 -0.20356862 0.058312297
0.27884132 0.11223389 -0.006376848 -0.3037893 -0.05099867 0.08274727 -0.33587337 -0.018841883
0.025838815 0.018961864 -0.040837392 -0.061722774 -0.0029781705 -0.014588362 -0.11577435 0.08936084
0.04440614 0.0710923 -0.12595816 -0.024768123 -0.06960027 -0.30689543 0.08148565 0.042592023
-0.031846084 0.118007995 0.06807902 -0.14674221 -0.031038648 0.07495912 0.010537114 0.013309379
-0.01918828 0.04289231 -0.11863566 0.01682755 0.086266704 -0.02309148 -0.15016356 0.07225625
-0.15306868 -0.1409088 -0.04990407 0.04572392 0.03301263 -0.16369843 0.013446992 -0.09839754
0.21130258 -0.06861262 -0.027468981 -0.034017045 -0.22135982 0.18804589 0.03772952 0.052654624
00000000: d551 87bd 52e3 153e dda5 3dbc ce00 3e3d
00000010: 60cd b1be 3f80 af3c c4e1 3bbc 62e8 d13b
00000020: 7e5f a13d 4501 713c b35e e7bc 6dbd 1ebd
00000030: 6b77 9e3d 0143 c03c c569 c1bb d6cd 7a3c
00000040: 0d70 ffbc e78e c8bd 32d9 5e3d 0a48 f6bc
00000050: fc77 35be 87e6 f5bc e2e5 d1bd 2b9b 893d
00000060: 37e4 233d 63ab f63d 422c 89bd 934e 3a3b
00000070: 778c 1dbd 6fc0 22be fce6 383c 675f 4d3d
00000080: 0b95 0a3d 9caf d73d ec51 ecbd 39e4 943c
00000090: 22bb 79bd 840e 5b3d 2917 de3c 1e90 4fbd
000000a0: b6bf bbbd cd88 15bc c968 003d 668d 96bd
000000b0: e34d 3a3d 802a 95be 0043 cebd d569 aebe
000000c0: 6c87 3ebc f6e4 7a3c 0fab 7dbd 02fa 703d
000000d0: f154 0f3e 9aa4 e1bc 2bc5 87bc 578a c4be
000000e0: 0260 42be 7748 b8be 4d9d b63d d863 a4be
000000f0: 69a9 4e3d aed7 20bb b79a 943d 4117 5f3e
00000100: 6014 1d3e 113c 983d 304d fcbd 7663 0f3e
00000110: 334a a2bd d5f6 58bd 41ae 0ebd 001c 913c
00000120: d2bb 613c 90c7 f0bc 436d b8bc 92c3 30bc
00000130: 2c90 233d 8435 39be 2926 0d3e 7ced 1538
00000140: f0f5 373d 1527 f33b cc65 083e c164 2cbd
00000150: 73b6 3abd 2404 4c3d b3f3 b33d 2c33 c53d
00000160: 238c 53be bd07 073e 0172 c6bd 32be 24bb
00000170: 9fe7 043e 4435 373d 9dc0 a23d aa8b 52bd
00000180: b5f1 8a3d 2876 7d3e 1b00 e8bd 3ee1 d93d
00000190: 4e07 a8bd 1545 753a 6922 b43c 15d8 82be
000001a0: 09ff a0bc d10a bdbb 8522 5bbe 4a1b 75bd
000001b0: 7391 973d aee0 a3bd 3810 be3c e45a 72bc
000001c0: c286 79bc 5f55 19bd 2bb5 87bc b86c abbd
000001d0: 207d f83d c53d 283e 6bc3 b1bd bd9f 72be
000001e0: 4688 20bd e066 4bbd 8c20 e63c d777 95bc
000001f0: cf25 b83d f0b8 29be 3d17 3b3d b37a dabd
00000200: 021a 9cbb 6d6f 16bd 9f82 4e3e 1687 d83c
00000210: b23d 123d 94b0 2cbe 70a2 4cbe 97ae 463c
00000220: ad65 d63d 3dae 8f3d f202 b63d d3ff aa3c
00000230: 9ead 24be b138 1dbe 2505 a3be 9019 573d
00000240: 4fa5 1a3d 288d 203e 2311 9a3d 7dc0 6d3d
00000250: e5fa 443e 7848 093d 5e8c 3a3d 37d2 de3d
00000260: bdae 3abe 9035 8d3c 4c0b 503c ceee 77bd
00000270: bd76 5dbc 87db 59bd d886 cc3d 4423 b8bb
00000280: 5e9f 5b3d 6c83 523d e306 89bd 5035 773c
00000290: 1c81 1d3d 742f f43d 7bb4 103e 734c 00bd
000002a0: 4924 9bbd acfa 60bd 1d0d 85bc 43d4 b9bd
000002b0: dbda 7dbd 01dc 343d a70c 42be fd7c 2e3e
000002c0: b467 873c 17a7 c73c 2dfc 3d3d ca5f 23bd
000002d0: 4d96 2d3d a721 49bd 2c02 943d 5d86 cd3d
000002e0: 5bdd 963d 08fb bdbc 6d30 acbb 5ea5 8d3d
000002f0: 1f77 76bc 44b9 d5bc fbb8 71be f164 2c3d
00000300: e24f 603d 8cd0 b9bd 1f64 bd3d c9f5 0f3e
00000310: 0fce 67bd daeb 313e 4b74 50be e0d8 6e3d
00000320: 4ac4 8e3e e2da e53d e1f4 d0bb 458a 9bbe
00000330: fbe3 50bd 6777 a93d 98f7 abbe 4b5a 9abc
00000340: ecab d33c e955 9b3c 1c45 27bd 05d1 7cbd
00000350: 692d 43bb 0604 6fbc 1a1b edbd d102 b73d
00000360: 36e3 353d d798 913d 2dfb 00be 85e6 cabc
00000370: 968a 8ebd 6621 9dbe f3e1 a63d f974 2e3d
00000380: 0a71 02bd 2dae f13d 036d 8b3d 9743 16be
00000390: c344 febc 2b84 993d dca3 2c3c 950f 5a3c
000003a0: bd30 9dbc d9af 2f3d 41f7 f2bd eed9 893c
000003b0: 99ac b03d 582a bdbc 7ac4 19be 16fb 933d
000003c0: 09be 1cbe 654a 10be 3668 4cbd 0149 3b3d
000003d0: 4038 073d 90a0 27be c650 5c3c a684 c9bd
000003e0: b45f 583e c684 8cbd a106 e1bc 7555 0bbd
000003f0: 26ac 62be 1a8f 403e 458a 1a3d 60ac 573d

fc2.bias f4 [10]
-0.46314505 -0.32552832 -0.13272135 0.2916199 0.34988382 0.058122575 0.07085835 0.026128586
0.08758466 0.079407126
00000000: 5921 edbe a6ab a6be 1be8 07be 344f 953e
00000010: f923 b33e f011 6e3d 2f1e 913d 9e0b d63c
00000020: 965f b33d 34a0 a23d
